PoseCorrection/Results/model_corr.pt (torch_old, 973014 bytes, 40 tensors)

gcin.weight f4 [25, 128]
-0.017650869 0.050447892 -0.12983857 -0.10848011 0.017055655 0.07793461 -0.017015854 0.09047909
0.09073643 -0.014437288 -0.0642186 0.09556944 -0.073625416 -0.11211997 -0.106036775 0.03703078
-0.04071775 0.08723286 -0.052592747 -0.09805677 0.038772978 0.10625818 -0.093423106 0.04291041
-0.0778041 -0.007493067 -0.009190418 -0.10912005 -0.16585112 -0.09054156 -0.10409279 0.11319392
-0.09808631 -0.08580092 -0.045397926 -0.051652193 -0.07542994 0.10253415 0.05894007 0.057296056
-0.023886153 -0.075224824 0.04301899 -0.14856662 -0.07733006 -0.10409997 -0.011345645 0.020955762
-0.10783822 -0.018039545 0.14716394 0.023749027 0.025056554 0.07444156 0.018447967 -0.14450191
-0.005504896 -0.10111884 -0.07666275 0.036301885 -0.003951119 0.030845063 0.010018151 0.060494035
-0.005116255 0.056946587 0.07736051 -0.012296675 0.04849205 0.05546342 -0.041855782 -0.027774312
0.109676234 0.10049925 0.028273914 0.046673782 -0.10234226 -0.12376311 0.08262738 -0.123516455
0.020489385 0.101210736 0.04868946 -0.103489235 0.015897177 0.03582741 -0.056978207 -0.12879117
0.029876573 -0.06191072 0.053459615 -0.019740632 0.0996622 0.018327994 -0.17460527 -0.12670588
0.056998696 0.024504853 -0.13069852 -0.13987619 0.08412448 0.06196805 -0.08460725 0.07848052
-0.14875343 -2.4479656e-05 -0.031356294 -0.14112142 0.08912812 0.02457531 -0.11850141 0.024854492
-0.070951365 0.08932499 0.06409213 -0.09369826 -0.0837657 -0.025007587 0.01238524 -0.019762134
0.13777229 0.022789478 -0.082566366 0.0687694 -0.09760091 -0.12300186 -0.019237973 -0.034124408
-0.10972983 -0.0641516 0.04653785 0.13619092 -0.25838745 -0.023732012 0.0032684284 -0.05529795
0.043137264 -0.0043496727 0.1032762 -0.026648086 0.07677552 0.046229944 0.075251445 -0.06626323
-0.053822298 -0.07795799 0.16607751 0.14648984 -0.09800514 -0.03154784 0.043642387 -0.17516604
0.0051818085 0.12831818 0.007258555 -0.03966835 0.08541315 0.04964199 -0.012116665 -0.10731753
0.057073813 0.0058722855 -0.17003798 -0.14313573 0.11406712 -0.06398488 -0.044697937 0.09494885
-0.24142253 0.08922023 0.09650915 0.038600188 0.064134106 0.09532455 -0.27256694 0.27297518
0.07136589 -0.17226966 0.02466852 -0.076948486 0.18678318 -0.08592091 0.2354365 0.015640624
0.1357858 0.07171203 0.100288644 -0.12778643 -0.032357335 0.05041719 0.19891955 0.005779708
-0.21021114 0.0012083948 -0.11639305 -0.26558352 -0.11624215 -0.011936216 -0.079093866 -0.030561097
-0.10105909 0.05919354 -0.09582923 0.12173434 -0.015867464 0.121869035 -0.008768235 0.037851773
0.19717434 -0.022367153 -0.08137872 0.0650322 0.22426103 -0.13459596 -0.061489247 -0.055427738
-0.1724978 -0.0699641 0.1391976 -0.19624312 -0.013753338 -0.12259579 -0.04454863 0.039513767
-0.040424496 0.1718819 -0.06752068 -0.04276519 -0.020470425 -0.0751376 -0.105288066 0.061652016
0.108338155 0.21040082 0.108931564 -0.067232184 0.04042464 -0.11002425 -0.0122684855 0.104425915
0.131586 -0.013431924 -0.031340476 0.0049959323 0.09913544 -0.24152978 0.20015809 -0.18849385
-0.03465476 0.05353576 -0.11900311 -0.0322896 -0.06314926 -0.027160782 0.029908009 -0.047294457
00000000: 8e98 90bc 73a2 4e3d 67f4 04be d22a debd
00000010: 4db8 8b3c 2e9c 9f3d d564 8bbc 1a4d b93d
00000020: 05d4 b93d 608a 6cbc 0b85 83bd e9b9 c33d
00000030: ecc8 96bd 289f e5bd cf29 d9bd 96ad 173d
00000040: a8c7 26bd 24a7 b23d 7e6b 57bd fdd1 c8bd
00000050: 6ad0 1e3d e49d d93d 9d54 bfbd d3c2 2f3d
00000060: c257 9fbd 6788 f5bb 6893 16bc 557a dfbd
00000070: e0d4 29be da6d b9bd 9a2e d5bd 37d2 e73d
00000080: 7ae1 c8bd 65b8 afbd 2df3 39bd 4091 53bd
00000090: 037b 9abd 6dfd d13d 256b 713d 45af 6a3d
000000a0: e5ac c3bc 790f 9abd ae34 303d d921 18be
000000b0: 395f 9ebd 5d32 d5bd 16e3 39bc 6bab ab3c
000000c0: 49da dcbd abc7 93bc 25b2 163e 528d c23c
000000d0: 6743 cd3c d174 983d 3120 973c 4ff8 13be
000000e0: 6a62 b4bb 6517 cfbd 5c01 9dbd 49b1 143d
000000f0: 6378 81bb c9ae fc3c 2c23 243c 98c8 773d
00000100: 42a6 a7bb d340 693d 306f 9e3d fe77 49bc
00000110: 9a9f 463d 9c2d 633d f870 2bbd f486 e3bc
00000120: ef9d e03d 8dd2 cd3d b29e e73c 022d 3f3d
00000130: d298 d1bd 8377 fdbd 8b38 a93d 32f6 fcbd
00000140: 5bd9 a73c 9347 cf3d 996e 473d 2af2 d3bd
00000150: cc3a 823c c3bf 123d fb61 69bd d5e1 03be
00000160: b7bf f43c 1896 7dbd 78f8 5a3d 1bb7 a1bc
00000170: b21b cc3d 9724 963c b9cb 32be 30bf 01be
00000180: 7777 693d 67be c83c d5d5 05be b43b 0fbe
00000190: 7549 ac3d 36d2 7d3d 9146 adbd 65ba a03d
000001a0: d252 18be a959 cdb7 756f 00bd 2282 10be
000001b0: ce88 b63d 2952 c93c deb0 f2bd a69b cb3c
000001c0: f34e 91bd 05f0 b63d bc42 833d e0e4 bfbd
000001d0: 5a8d abbd b6dc ccbc 76eb 4a3c 33e4 a1bc
000001e0: 2e14 0d3e 00b1 ba3c 8e18 a9bd f9d6 8c3d
000001f0: fce2 c7bd 66e8 fbbd f498 9dbc 09c6 0bbd
00000200: 08ba e0bd ea61 83bd 799e 3e3d a275 0b3e
00000210: 5c4b 84be a369 c2bc 2133 563b 1a80 62bd
00000220: b3b0 303d b387 8ebb 7982 d33d 164d dabc
00000230: 7c3c 9d3d 9c5b 3d3d 6e1d 9a3d 04b5 87bd
00000240: c574 5cbd 70a8 9fbd 3910 2a3e 6f01 163e
00000250: ebb6 c8bd 4f38 01bd 5cc2 323d ba5e 33be
00000260: 29cc a93b d765 033e 2cd9 ed3b 487b 22bd
00000270: 17ed ae3d 6655 4b3d fa84 46bc 4bc9 dbbd
00000280: 3bc6 693d 4d6c c03b 701e 2ebe 2c92 12be
00000290: 069c e93d 810a 83bd 2f15 37bd 8b74 c23d
000002a0: 7837 77be 19b9 b63d 97a6 c53d 3b1b 1e3d
000002b0: be58 833d 8539 c33d e58d 8bbe 67c3 8b3e
000002c0: 4828 923d 7567 30be a315 ca3c 2b97 9dbd
000002d0: 1744 3f3e 4df7 afbd 4416 713e c420 803c
000002e0: 6f0b 0b3e c2dd 923d 2264 cd3d 72da 02be
000002f0: 2089 04bd 4182 4e3d 91b1 4b3e b463 bd3b
00000300: 9741 57be 0063 9e3a 7b5f eebd 90fa 87be
00000310: 5d10 eebd 1e90 43bc f7fb a1bd 445b fabc
00000320: 11f8 cebd ed74 723d 1e42 c4bd db4f f93d
00000330: 7cfc 81bc 7996 f93d a5a8 0fbc 760a 1b3d
00000340: 12e8 493e 523b b7bc e3a9 a6bd 9a2f 853d
00000350: afa4 653e 86d3 09be 26dc 7bbd 3208 63bd
00000360: 43a3 30be 5749 8fbd d189 0e3e f5f3 48be
00000370: ae55 61bc 8013 fbbd a078 36bd 30d9 213d
00000380: 2894 25bd cf01 303e 4848 8abd 8d2a 2fbd
00000390: 98b1 a7bc bee1 99bd 45a1 d7bd d386 7c3d
000003a0: 65e0 dd3d 5073 573e 8317 df3d 07b1 89bd
000003b0: 4f94 253d 6554 e1bd c201 49bc 41dd d53d
000003c0: 7bbe 063e 9311 5cbc df5e 00bd ebb4 a33b
000003d0: 8607 cb3d 9553 77be 3ef6 4c3e 8804 41be
000003e0: 26f2 0dbd 5048 5b3d e7b7 f3bd 1a42 04bd
000003f0: 6654 81bd 4a80 debc a401 f53c d5b7 41bd

gcin.adj f4 [57, 57]
-0.097047426 -0.063006565 0.018459786 -0.049001016 -0.08149404 -0.00046374724 0.24873988 -0.118045874
0.051835313 -0.036116548 0.069927506 0.019582583 -0.005716549 -0.07226761 -0.009230805 0.05073096
0.09996002 0.06511607 0.08747467 0.044944357 -0.13433358 0.04202479 0.00076263753 0.05957774
-0.11974478 -0.03996913 0.22048147 0.037081078 0.16918536 0.068963274 0.04923578 -0.14136311
0.101639815 0.103748605 0.035475705 -0.13672236 0.013823636 0.16273986 -0.08998581 -0.20880379
-0.0033795412 0.27996564 -0.052944716 -0.056918778 0.10547663 -0.030971302 -0.092371926 0.09381848
0.06902866 0.020605534 0.02102933 0.021877259 -0.15110701 -0.19706717 -0.023094036 0.06569694
-0.09170946 -0.049000196 -0.12155703 -0.06026947 0.043554053 -0.09135499 -0.11562149 0.09109323
0.10142292 0.031942487 0.03796958 -0.050115883 -0.09844846 -0.014254418 0.015444094 -0.14629848
0.012424749 -0.12882909 -0.19183049 -0.09425246 0.0045884266 0.014102575 0.008111397 0.20578696
0.11968071 -0.0029230302 0.010006122 0.17752305 -0.086338766 -0.111474656 0.014233713 -0.03658448
-0.0143957855 -0.079875655 0.07888692 0.11215881 -0.09318044 0.02653721 0.10460201 0.1072277
-0.13102257 -0.0147181945 0.11660407 -0.019108469 -0.10123321 -0.009474096 -0.044162806 -0.13073435
0.008172457 0.07939192 0.0020520994 0.023902437 0.079589985 0.13309886 -0.026103975 0.1879767
0.06636207 0.13557962 -0.043949604 -0.057329603 -0.032489043 -0.023075925 -0.014084442 -0.1961688
0.14627324 0.06317931 0.08547247 0.07741229 0.003673663 -0.15868051 -0.02336677 0.016497113
-0.17070214 -0.00729335 0.0053201187 0.09763268 -0.095626295 -0.14738303 -0.19015625 0.0054706587
0.27037132 0.038254026 -0.029086003 -0.011795523 0.08248367 0.07363947 0.06313832 -0.086068034
-0.096882984 0.02641629 0.12663954 0.13154647 -0.054194592 -0.03869587 0.014429962 0.031654596
-0.12812842 -0.14808038 -0.01924738 0.19913852 0.011537466 -0.11027309 -0.059819505 -0.06322563
0.048538443 -0.105857044 -0.027482184 -0.0846712 -0.020626483 0.042805485 0.11171875 -0.29949254
0.21399657 -0.008142193 -0.0014530612 -0.083538555 0.041331526 -0.0771524 -0.018249013 -0.05707078
0.03906775 0.2739545 0.020527927 0.03798202 0.10940914 0.15791267 0.0773948 0.025658133
0.05250673 0.11915813 -0.03579179 -0.1200893 0.0005734084 0.13570657 -0.015036261 0.090729825
0.021640133 0.076597914 0.10142059 -0.1429898 0.23011993 0.45111877 -0.09536965 0.059239812
0.16585387 0.010154073 -0.085897565 -0.088363655 0.14579229 0.013534231 -0.1090702 0.03173429
0.04985154 -0.017250333 0.22967015 0.26881605 0.12618424 -0.02341115 0.02565659 0.076391526
0.099687606 -0.15508738 -0.0593343 0.11733227 0.008237367 -0.13766964 0.020860186 -0.002685385
0.070940666 -0.10910446 -0.034435116 0.037972733 0.040054455 -0.06435791 -0.017327193 0.080601856
-0.044985935 0.09497982 0.06522423 0.012976272 0.057243694 -0.16998719 -0.03212114 0.06912715
0.13228142 0.08110464 -0.21615238 -0.15872951 -0.114973 -0.09170767 0.08710312 0.09259151
-0.018913118 0.1329939 -0.098158926 -0.042943295 -0.08386607 0.09806573 0.11294396 0.066101395
00000000: cdc0 c6bd 9609 81bd fa38 973c 4ab5 48bd
00000010: 59e6 a6bd 1a23 f3b9 abb5 7e3e 09c2 f1bd
00000020: 4451 543d f2ee 13bd 2736 8f3d a76b a03c
00000030: e451 bbbb 0a01 94bd cd3c 17bc 44cb 4f3d
00000040: d7b7 cc3d 935b 853d eb25 b33d 9317 383d
00000050: be8e 09be 3022 2c3d bdeb 473a ca07 743d
00000060: c03c f5bd acb6 23bd e5c5 613e 54e2 173d
00000070: ed3e 2d3e 9e3c 8d3d 75ab 493d 7ec1 10be
00000080: 8928 d03d 267a d43d f94e 113d f200 0cbe
00000090: 887c 623c 47a5 263e 7b4a b8bd a9d0 55be
000000a0: 4b7b 5dbb a857 8f3e 8fdc 58bd aa23 69bd
000000b0: 2204 d83d 87b7 fdbc 7e2d bdbd e723 c03d
000000c0: e65e 8d3d f0cc a83c b445 ac3c f037 b33c
000000d0: ccbb 1abe facb 49be b42f bdbc 1e8c 863d
000000e0: 2bd2 bbbd 6eb4 48bd e4f2 f8bd 1fdd 76bd
000000f0: bc65 323d 5318 bbbd f6ca ecbd 168f ba3d
00000100: d2b6 cf3d 20d6 023d fe85 1b3d 5046 4dbd
00000110: 599f c9bd 5d8b 69bc 3a09 7d3c 45cf 15be
00000120: 2d91 4b3c c6eb 03be 366f 44be 6f07 c1bd
00000130: 835a 963b 7d0e 673c aae5 043c d1b9 523e
00000140: 291b f53d 4f90 3fbb b8f0 233c 9ac8 353e
00000150: 61d2 b0bd d34c e4bd 8534 693c 9cd9 15bd
00000160: 4ddc 6bbc d995 a3bd 778f a13d 85b3 e53d
00000170: 63d5 bebd 9064 d93c 9439 d63d 329a db3d
00000180: c82a 06be 9524 71bc 1dce ee3d 5d89 9cbc
00000190: 5b53 cfbd 3d39 1bbc 0fe4 34bd 3adf 05be
000001a0: c5e5 053c 3b98 a23d 847c 063b 0bcf c33c
000001b0: 1300 a33d 114b 083e 01d8 d5bc f77c 403e
000001c0: d6e8 873d 62d5 0a3e 8004 34bd 72d2 6abd
000001d0: 3b13 05bd b909 bdbc 6ec2 66bc 79e0 48be
000001e0: a7c8 153e 2764 813d 310c af3d 568a 9e3d
000001f0: d6c1 703b 257d 22be ab6b bfbc f424 873c
00000200: 8bcc 2ebe 0efd eebb 6454 ae3b a4f3 c73d
00000210: b8d7 c3bd 94eb 16be 52b8 42be 3643 b33b
00000220: 1c6e 8a3e 41b0 1c3d c545 eebc 0242 41bc
00000230: 33ed a83d 4ad0 963d aa4e 813d 7044 b0bd
00000240: 966a c6bd fa66 d83c ccad 013e 1eb4 063e
00000250: 26fb 5dbd 907f 1ebd a66b 6c3c 40a8 013d
00000260: 1934 03be 62a2 17be aeac 9dbc f8ea 4b3e
00000270: a407 3d3c dcd6 e1bd 4c05 75bd 707c 81bd
00000280: 3fd0 463d 94cb d8bd 5122 e1bc 1868 adbd
00000290: dff8 a8bc ce54 2f3d cdcc e43d 1657 99be
000002a0: eb21 5b3e d566 05bc a574 beba 4316 abbd
000002b0: 3f4b 293d 1402 9ebd f47e 95bc 0dc3 69bd
000002c0: 8105 203d c443 8c3e 2f2a a83c 0993 1b3d
000002d0: e611 e03d dcb3 213e 2a81 9e3d 0131 d23c
000002e0: 4c11 573d 2d09 f43d 699a 12bd 61f1 f5bd
000002f0: c950 163a aaf6 0a3e a65a 76bc 8fd0 b93d
00000300: a646 b13c 5edf 9c3d 99b5 cf3d eb6b 12be
00000310: 8fa4 6b3e 0af9 e63e 2a51 c3bd 72a5 723d
00000320: 99d5 293e 455d 263c 10eb afbd 01f8 b4bd
00000330: 934a 153e aebe 5d3c 3260 dfbd d1fb 013d
00000340: 2131 4c3d 9250 8dbc a72e 6b3e 42a2 893e
00000350: 7136 013e bdc8 bfbc c52d d23c 2973 9c3d
00000360: 0429 cc3d 3acf 1ebe 8608 73bd e74b f03d
00000370: 05f6 063c 45f9 0cbe fbe2 aa3c 49fd 2fbb
00000380: 5749 913d 2972 dfbd d60b 0dbd 4c89 1b3d
00000390: 2410 243d 14ce 83bd c2f1 8dbc 9612 a53d
000003a0: 2c43 38bd c884 c23d 4894 853d 6e9a 543c
000003b0: 5d78 6a3d 1f11 2ebe 7591 03bd 8992 8d3d
000003c0: c874 073e 311a a63d 0d57 5dbe fd89 22be
000003d0: f776 ebbd 3bd1 bbbd 1f63 b23d 9ea0 bd3d
000003e0: afef 9abc 8e2f 083e 8c07 c9bd 4fe5 2fbd
000003f0: f9c1 abbd afd6 c83d 2a4f e73d 2b60 873d

gcin.bias f4 [128]
0.083633944 0.022903154 -0.06343018 -0.07774145 0.06710204 0.079705924 -0.053215615 0.022632433
-0.024390353 0.05356899 -0.050725058 0.058450602 0.08776834 0.053602166 -0.015329952 0.010467245
0.038859174 -0.051827766 -0.041302882 -0.08505655 0.06283378 -0.04077136 0.07744785 -0.016682869
-0.03415544 0.047607474 -0.008778658 -0.058801495 0.00990166 -0.04082822 -0.06424648 -0.055337287
0.03108674 0.0067281784 -0.035148114 0.03165273 -0.028121823 -0.068600245 0.029493669 -0.029736467
-0.026959747 0.062329452 0.06625995 -0.08621165 0.07640857 0.07826288 -0.064081416 -0.08744177
-0.0692801 -0.023253843 -0.005038341 0.025330475 0.020666987 0.015213077 -0.06991326 0.085708536
0.07717546 0.042276364 0.01931979 -0.048230235 0.0069868336 -0.06216386 0.08146801 -0.07691857
0.0746731 0.086673886 -0.04184557 -0.07892987 0.031079642 -0.06765692 -0.08217198 -0.052384187
0.063983664 -0.055447966 -0.035883553 -0.035972748 0.06098723 0.03452036 0.0509239 -0.017240703
-0.05171759 0.030943528 0.03539362 0.07318725 -0.08246341 -0.06532848 0.05844441 0.023226665
0.0587904 -0.023174776 0.08776253 0.034648947 -0.03270284 -0.04532653 0.023347713 -0.0028922225
-0.043106165 -0.04867703 0.031171497 0.043353785 0.08403776 -0.0362574 -0.05200504 -0.055296216
-0.060020994 0.08539142 -0.043781616 -0.041412987 0.06251201 0.07097417 -0.07943415 -0.010722405
0.027109139 0.013691458 -0.048834942 -0.07091956 -0.06068519 0.030361988 -0.04075523 -0.08182027
0.08747689 0.041892935 -0.026615487 0.01603584 -0.03134254 -0.058740873 -0.08088465 0.059080146
00000000: 4648 ab3d 659f bb3c afe7 81bd e936 9fbd
00000010: cb6c 893d dc3c a33d 9ef8 59bd a767 b93c
00000020: 47ce c7bc 286b 5b3d 14c5 4fbd e669 6f3d
00000030: e3bf b33d f28d 5b3d 7b2a 7bbc cf7e 2b3c
00000040: cc2a 1f3d 5a49 54bd 362d 29bd 2132 aebd
00000050: ffae 803d dfff 26bd fa9c 9e3d 83aa 88bc
00000060: 93e6 0bbd 0e00 433d 5cd4 0fbc d6d9 70bd
00000070: 923a 223c 7e3b 27bd a993 83bd 5aa9 62bd
00000080: 9ea9 fe3c 0d78 dc3b 78f7 0fbd 4ba6 013d
00000090: bd5f e6bc 497e 8cbd b59c f13c e499 f3bc
000000a0: b0da dcbc 2b4d 7f3d 4cb3 873d bc8f b0bd
000000b0: 197c 9c3d 4a48 a03d 1e3d 83bd ac14 b3bd
000000c0: bae2 8dbd d87e bebc ab18 a5bb db81 cf3c
000000d0: d04d a93c 4540 793c af2e 8fbd f587 af3d
000000e0: 2b0e 9e3d fb29 2d3d 8944 9e3c 118d 45bd
000000f0: cff1 e43b 889f 7ebd b3d8 a63d 7c87 9dbd
00000100: 36ee 983d 1482 b13d 4366 2bbd fca5 a1bd
00000110: bc9a fe3c b68f 8abd c849 a8bd cd90 56bd
00000120: de09 833d 681d 63bd a2fa 12bd 2958 13bd
00000130: bfcd 793d 3965 0d3d 9495 503d 603c 8dbc
00000140: d3d5 53bd 487d fd3c e7f8 103d 32e3 953d
00000150: 94e2 a8bd f0ca 85bd 6863 6f3d d945 be3c
00000160: 34ce 703d 07d9 bdbc d7bc b33d 0eec 0d3d
00000170: 6af3 05bd 50a8 39bd b443 bf3c 718b 3dbb
00000180: 1790 30bd 9161 47bd 5e5b ff3c bd93 313d
00000190: fd1b ac3d a482 14bd 3d03 55bd 497e 62bd
000001a0: 93d8 75bd b2e1 ae3d 5a54 33bd aaa0 29bd
000001b0: 4c06 803d e85a 913d 5fae a2bd 07ad 2fbc
000001c0: fc13 de3c 2352 603c 2607 48bd 463e 91bd
000001d0: 0991 78bd b4b9 f83c f5ee 26bd 6391 a7bd
000001e0: 1527 b33d ed97 2b3d b908 dabc 985d 833c
000001f0: 0961 00bd 459a 70bd daa6 a5bd 06fe 713d

bn1.weight f4 [7296]
0.70673203 0.92340463 0.80860597 0.8187147 1.0438704 0.8970611 1.2497029 1.0006875
1.0908642 1.1452631 0.9866005 0.83512115 1.1237706 0.97353274 0.97567034 1.0045365
0.9021379 1.0228474 0.6961916 0.8299172 1.0029436 0.9637855 0.7936334 0.7340643
0.98864025 1.2432723 1.2953017 1.0113904 0.76788175 0.8225593 0.8131545 0.9495715
1.119574 0.87170994 0.97069913 1.0155702 0.91433597 0.74840015 0.858587 0.8138977
0.6910686 0.6903754 0.86486846 1.0041982 0.83939886 0.7506645 0.58750874 0.9095784
0.9530783 1.2861143 0.80748576 0.9179341 0.81276625 0.7646226 0.7035094 0.82271624
1.2945194 1.0317533 0.8532105 1.0520543 0.9582348 1.1594554 0.7785663 0.788556
0.74411994 0.8800075 0.7821594 0.8464769 0.82752013 1.0582986 0.87808055 0.94548583
0.83269215 1.0529528 1.1208467 0.7344362 1.0338957 0.88378775 0.99595445 0.77787465
1.4015436 0.8803537 0.9596564 1.0667497 1.0567517 0.9180358 0.8593093 0.9799144
0.9219113 0.8581664 0.81817675 1.0796175 0.7965005 0.90851164 0.9831404 0.7591228
0.73770237 1.0781937 0.8388839 0.7723074 0.9694381 0.9513176 0.98293483 0.9194326
1.1137983 1.2494946 0.84479284 1.004718 0.8479936 1.0369892 0.77438724 1.2251376
0.77108854 0.89400214 0.9822344 0.8074276 0.8431856 0.8547091 0.9682506 0.6895267
0.8357358 1.2288312 0.86097085 1.0209314 0.91280144 1.0513939 0.82800156 1.1792264
0.82124424 0.963115 1.005182 0.96085876 0.899705 0.9767069 0.7949956 0.965951
1.1181339 0.85092 1.0230798 0.87298703 0.9932769 1.1064377 0.86120087 1.0132524
0.8651327 0.86571276 1.0420567 1.0668043 0.9752423 0.8871993 0.87831175 1.0358024
1.1201962 0.83811855 0.9383753 1.0023146 1.0925057 0.8441883 0.9637381 1.0759935
0.87709945 0.84408426 0.9138237 0.7492517 1.0104223 1.0493731 1.1318985 1.0424665
1.0189325 0.8994919 0.9395897 0.93458784 0.9077264 1.0730023 1.0462512 1.0048938
0.8941596 0.85706925 1.0773377 1.1840826 1.2750082 1.0773926 1.1848851 0.89508533
1.0342923 1.1551577 0.91754425 0.9332276 1.0584718 0.9453719 1.0121467 0.84893644
1.2067713 1.004455 1.0473496 1.0767827 0.9788078 0.95658034 0.8158054 0.9667291
1.0006402 0.9494022 0.9522169 0.93347514 0.97251034 1.0145085 1.0286372 0.9505566
1.1759869 0.9538541 0.8424723 0.80248463 1.209037 0.86924124 1.020483 1.0857095
0.84312826 0.83217025 1.2440835 1.0827483 0.9544674 1.283104 1.0408082 1.0538269
1.0194386 1.2392867 0.9192348 1.0521865 0.9011289 0.9098678 0.98240525 0.8916796
0.9638897 0.91558516 1.0642769 1.105049 1.0954441 1.2740155 0.98342943 0.7479152
1.0260267 1.0041975 0.92782634 1.0386512 0.9139359 0.96213686 0.9841718 0.971176
1.0944971 1.1261823 0.89568156 1.1002781 1.04615 1.0864792 0.7689918 1.0941347
00000000: 64ec 343f 3f64 6c3f cd00 4f3f 4997 513f
00000010: 8c9d 853f cca5 653f 44f6 9f3f 8716 803f
00000020: 70a1 8b3f fb97 923f da91 7c3f 80ca 553f
00000030: b7d7 8f3f 7139 793f 88c5 793f a794 803f
00000040: 82f2 663f aaec 823f 9d39 323f 7475 543f
00000050: 7560 803f a6ba 763f 8f2b 4b3f a3eb 3b3f
00000060: 8717 7d3f 8c23 9f3f 72cc a53f 3e75 813f
00000070: e693 443f 3f93 523f e52a 503f 1e17 733f
00000080: 334e 8f3f 6228 5f3f bd7f 783f 34fe 813f
00000090: ec11 6a3f 2797 3f3f 5ccc 5b3f 9a5b 503f
000000a0: dfe9 303f 71bc 303f 0568 5d3f 9189 803f
000000b0: d8e2 563f 8c2b 403f f966 163f 21da 683f
000000c0: f1fc 733f 659f a43f 63b7 4e3f bbfd 6a3f
000000d0: 7311 503f 4fbe 433f 3119 343f 889d 523f
000000e0: d0b2 a53f 7e10 843f 016c 5a3f b7a9 863f
000000f0: e04e 753f 0969 943f 1f50 473f cede 493f
00000100: a57e 3e3f 2c48 613f 993b 483f b6b2 583f
00000110: 5cd8 533f 5476 873f e3c9 603f 5c0b 723f
00000120: 502b 553f 28c7 863f e877 8f3f 0304 3c3f
00000130: b256 843f ea3f 623f dff6 7e3f cb22 473f
00000140: c865 b33f dc5e 613f 0bac 753f 418b 883f
00000150: a443 873f 6504 6b3f b2fb 5b3f acdb 7a3f
00000160: 6102 6c3f cbb0 5b3f 0874 513f e830 8a3f
00000170: 75e7 4b3f 3894 683f 17af 7b3f df55 423f
00000180: 10da 3c3f 4002 8a3f 18c1 563f f0b5 453f
00000190: 182d 783f 8d89 733f 9ea1 7b3f ef5f 6b3f
000001a0: f190 8e3f 70ef 9f3f 5844 583f 999a 803f
000001b0: 1c16 593f 10bc 843f 3e3e 463f 4fd1 9c3f
000001c0: 0f66 453f 53dd 643f b773 7b3f 93b3 4e3f
000001d0: 03db 573f 37ce 5a3f 45df 773f d284 303f
000001e0: c8f2 553f 574a 9d3f 9668 5c3f e1ad 823f
000001f0: 5bad 693f 1394 863f e9f7 533f e4f0 963f
00000200: 103d 523f b48e 763f cea9 803f d7fa 753f
00000210: 1153 663f 7709 7a3f d584 4b3f 9148 773f
00000220: 031f 8f3f e5d5 593f 47f4 823f 147c 5f3f
00000230: 6547 7e3f c09f 8d3f a977 5c3f 41b2 813f
00000240: 5679 5d3f 5a9f 5d3f 1d62 853f 0b8d 883f
00000250: 7ba9 793f 7e1f 633f 0ad9 603f 2c95 843f
00000260: 9762 8f3f f08e 563f 5d39 703f d84b 803f
00000270: 3ad7 8b3f b91c 583f 8ab7 763f 28ba 893f
00000280: 9789 603f e815 583f 5af0 693f f6ce 3f3f
00000290: 8555 813f dc51 863f 0de2 903f 8b6f 853f
000002a0: 616c 823f 1a45 663f f388 703f 2641 6f3f
000002b0: c260 683f 2458 893f 8feb 853f 5ca0 803f
000002c0: a5e7 643f e468 5b3f 34e6 893f 0590 973f
000002d0: 7833 a33f 00e8 893f 51aa 973f 5024 653f
000002e0: b163 843f 35dc 933f 2ee4 6a3f 01e8 6e3f
000002f0: 017c 873f e503 723f 068e 813f e653 593f
00000300: 7b77 9a3f fb91 803f 8d0f 863f 04d4 893f
00000310: 2693 7a3f 73e2 743f 9fd8 503f 8f7b 773f
00000320: fa14 803f 060c 733f 7dc4 733f 3af8 6e3f
00000330: 70f6 783f 6adb 813f 62aa 833f ad57 733f
00000340: bd86 963f c82f 743f 44ac 573f a26f 4d3f
00000350: b9c1 9a3f 9886 5e3f 309f 823f 87f8 8a3f
00000360: 41d7 573f 1c09 553f 213e 9f3f 7f97 8a3f
00000370: fa57 743f c03c a43f 3439 853f cde3 863f
00000380: f77c 823f f2a0 9e3f f952 6b3f 0cae 863f
00000390: 62b0 663f 19ed 683f e97e 7b3f 1d45 643f
000003a0: 7ac1 763f ca63 6a3f 3a3a 883f 3f72 8d3f
000003b0: 8337 8c3f f112 a33f 08c2 7b3f 5f77 3f3f
000003c0: d854 833f 8b89 803f 0786 6d3f 86f2 843f
000003d0: b4f7 693f 9a4e 763f aff2 7b3f fe9e 783f
000003e0: 7b18 8c3f be26 903f 634b 653f ead5 8c3f
000003f0: 3ee8 853f c011 8b3f a6dc 443f 9b0c 8c3f

bn1.bias f4 [7296]
-0.16136695 0.037083812 -0.13526215 -0.14307974 0.09974997 -0.11604372 0.20962529 0.010101524
0.01710375 -0.043052852 -0.053693227 -0.075156614 0.13587347 -0.08140085 0.0046973294 -0.058920916
-0.12231334 -0.02906789 -0.21508998 -0.016667103 -0.05179886 -0.027497305 -0.10889447 -0.22439156
0.005722162 0.020205814 0.3110908 -0.021588355 -0.13206765 -0.052779377 -0.11861313 -0.07008039
0.15546143 -0.09105108 -0.009137899 -0.017222358 -0.018618757 -0.29502767 -0.016176663 -0.18679124
-0.043292146 -0.20341346 0.012318415 0.002094486 -0.15021671 -0.22476223 -0.14017683 0.02776413
-0.07482831 0.13569115 -0.15033616 -0.008293503 -0.124678224 -0.18448915 -0.18421979 -0.17953381
0.05932372 -0.010944881 -0.07962536 0.032473907 -0.14072853 0.12205175 -0.17253417 -0.14041902
-0.07391693 -0.085521996 -0.09635478 -0.07788575 -0.17303169 -0.01861774 -0.040179282 -0.049753748
-0.19192816 -0.036851685 0.061812256 -0.2789993 0.12030686 -0.10441099 -0.13195044 -0.12553781
0.16375127 -0.10954629 -0.075368665 -0.00032023175 0.056236874 -0.023399027 -0.0767397 -0.046835847
-0.035051066 0.0019575302 -0.18144494 0.0641046 -0.2072324 -0.016981369 -0.016995309 -0.15317914
-0.19925585 -0.108345054 -0.12341147 -0.1982248 -0.0019842999 0.023991236 0.09335111 -0.124347724
0.19232744 0.12273518 -0.17735958 -0.04232721 -0.1946522 0.09964801 -0.22583644 0.25886837
-0.13055904 -0.08247698 -0.038221635 -0.1845069 -0.029191438 -0.0029534472 0.044724364 -0.17562956
-0.16169478 0.06526783 -0.05243148 0.028161827 -0.11299549 -0.036485124 -0.06557394 0.2218351
-0.0043654214 -0.12887616 -0.015656618 -0.07587998 -0.120318286 -0.07779055 -0.30502957 -0.14484608
-0.055633835 -0.16266727 -0.050997928 -0.109572314 -0.047535796 0.012990964 -0.12527873 -0.06500211
0.034260307 -0.1990067 -0.022961084 0.058134407 -0.12946336 -0.14536613 -0.07971426 -0.058506947
-0.005227831 -0.16376923 -0.061838854 -0.03283745 -0.022663096 -0.13785268 0.023123844 -0.032271042
-0.23443015 -0.09032363 -0.21621215 -0.32891688 -0.066364214 -0.15627314 0.0022083127 -0.045986615
-0.28679585 -0.1249557 -0.2792158 -0.10842198 -0.1251589 -0.11683547 -0.13648088 -0.08682894
-0.13632414 -0.16671906 -0.15637806 0.048592143 0.023201052 -0.031172445 -0.048032373 -0.10418157
0.08025923 0.14258088 -0.12457635 -0.054608632 -0.053118106 -0.1632708 0.06815146 -0.1646182
-0.16040188 -0.013403155 -0.09622077 -0.13543218 -0.1745912 -0.13381493 -0.15219289 -0.12980972
-0.040294793 -0.18734401 -0.2664779 -0.20473768 -0.031391673 -0.07071463 -0.1401437 -0.21753317
0.19766957 -0.11740142 -0.23778352 -0.15971404 0.086737424 -0.21620277 -0.10677959 -0.012561387
-0.11268909 -0.20048292 -0.045859583 0.08427272 -0.059859093 0.13482283 -0.004688867 -0.04569836
-0.104520336 0.049913384 -0.11554513 -0.093583 -0.21716961 -0.17575656 -0.07272562 -0.12936124
-0.062381785 -0.074346304 0.06765175 -0.008407382 -0.03478229 0.042992186 -0.097297266 -0.21107149
-0.12595509 -0.15764894 -0.13729927 0.06153988 -0.09338066 -0.21755706 -0.107468456 -0.15270351
-0.050032217 0.08791459 -0.23136635 -0.101873875 0.06291835 0.038032137 -0.16826254 -0.15970927
00000000: 613d 25be 32e5 173d 2982 0abe 7f83 12be
00000010: b649 cc3d 54a8 edbd 03a8 563e dd80 253c
00000020: 2a1d 8c3c 3058 30bd 6eed 5bbd b6eb 99bd
00000030: 6a22 0b3e 7db5 a6bd 0eec 993b 0f57 71bd
00000040: 6b7f fabd c91f eebc 8c40 5cbe 7389 88bc
00000050: 0b2b 54bd 0742 e1bc 1004 dfbd e7c6 65be
00000060: f980 bb3b aa86 a53c 4b47 9f3e 10da b0bc
00000070: be3c 07be 302f 58bd 71eb f2bd 4f86 8fbd
00000080: 4831 1f3e fd78 babd 20b7 15bc e715 8dbc
00000090: 5d86 98bc de0d 97be ec84 84bc 3446 3fbe
000000a0: 1b53 31bd 9e4b 50be 2dd3 493c a543 093b
000000b0: 69d2 19be 1228 66be 848a 0fbe 9a71 e33c
000000c0: 963f 99bd 9ff2 0a3e b9f1 19be 79e1 07bc
000000d0: 4c57 ffbd b9ea 3cbe 1da4 3cbe b6d7 37be
000000e0: 6efd 723d 2852 33bc 9f12 a3bd 5c03 053d
000000f0: 241b 10be 45f6 f93d ccac 30be 01ca 0fbe
00000100: c261 97bd 2826 afbd a855 c5bd 9082 9fbd
00000110: 382f 31be 3b84 98bc 0893 24bd 96ca 4bbd
00000120: d188 44be cbf1 16bd d92e 7d3d ffd8 8ebe
00000130: 7163 f63d 6ed5 d5bd 041e 07be fc8c 00be
00000140: 6aae 273e ce59 e0bd e35a 9abd c7e4 a7b9
00000150: a358 663d 51af bfbc b429 9dbd f2d6 3fbd
00000160: b591 0fbd e849 003b b4cc 39be 4649 833d
00000170: bb34 54be 831c 8bbc bf39 8bbc feda 1cbe
00000180: ba09 4cbe 03e4 ddbd 27bf fcbd 71fb 4abe
00000190: 070b 02bb 4589 c43c de2e bf3d 05aa febd
000001a0: 7cf1 443e 955c fb3d c09d 35be 4c5f 2dbd
000001b0: e852 47be 4214 cc3d ab41 67be 658a 843e
000001c0: 45b1 05be b1e9 a8bd 4a8e 1cbd 60ef 3cbe
000001d0: e222 efbc 9f8e 41bb e530 373d 3cd8 33be
000001e0: 5193 25be 24ab 853d 64c2 56bd a2b3 e63c
000001f0: 2e6a e7bd 6d71 15bd a14b 86bd be28 633e
00000200: cf0b 8fbb 1df8 03be 4f42 80bc f766 9bbd
00000210: 6f69 f6bd a750 9fbd d62c 9cbe 8852 14be
00000220: 4ee0 63bd 4092 26be 34e3 50bd 7367 e0bd
00000230: e5b4 42bd 0dd8 543c 1149 00be d41f 85bd
00000240: 8954 0c3d 6ac8 4bbe e218 bcbc 581e 6e3d
00000250: 0b92 04be dcda 14be 3b41 a3bd fba4 6fbd
00000260: 3a4e abbb 1fb3 27be bd4a 7dbd 9080 06bd
00000270: f5a7 b9bc 4129 0dbe 376e bd3c a42e 04bd
00000280: 750e 70be 98fb b8bd b866 5dbe cb67 a8be
00000290: f6e9 87bd 1106 20be 57b9 103b 765c 3cbd
000002a0: e8d6 92be c6e8 ffbd 60f5 8ebe 580c debd
000002b0: a829 00be 6f47 efbd a5c1 0bbe 5fd3 b1bd
000002c0: 8e98 0bbe 67b8 2abe 9221 20be 8e08 473d
000002d0: 2210 be3c 5b5d ffbc 98bd 44bd 265d d5bd
000002e0: f45e a43d b900 123e e321 ffbd 4dad 5fbd
000002f0: 5f92 59bd 7630 27be fe92 8b3d ac91 28be
00000300: 6440 24be e898 5bbc 650f c5bd bcae 0abe
00000310: 09c8 32be c806 09be 74d8 1bbe d7ec 04be
00000320: 270c 25bd 1cd7 3fbe cb6f 88be c1a6 51be
00000330: 8e94 00bd d5d2 90bd d581 0fbe 04c1 5ebe
00000340: e469 4a3e 2870 f0bd 867d 73be 148c 23be
00000350: 64a3 b13d 4264 5dbe 42af dabd 47ce 4dbc
00000360: 8ac9 e6bd 654b 4dbe 42d7 3bbd 2d97 ac3d
00000370: cf2e 75bd ff0e 0a3e 11a5 99bb 342e 3bbd
00000380: c20e d6bd fa71 4c3d eda2 ecbd 72a8 bfbd
00000390: b661 5ebe 87f9 33be 2bf1 94bd 4677 04be
000003a0: 0b84 7fbd e042 98bd 008d 8a3d 1ebf 09bc
000003b0: e077 0ebd 9318 303d ca43 c7bd 2023 58be
000003c0: 5ffa 00be b96e 21be 2e98 0cbe 3e11 7c3d
000003d0: 5c3e bfbd 47c7 5ebe 6c18 dcbd 4f5e 1cbe
000003e0: 95ee 4cbd 910c b43d 4deb 6cbe 40a3 d0bd
000003f0: 56db 803d 96c7 1b3d 044d 2cbe d48a 23be

bn1.running_mean f4 [7296]
1.2724701 -3.3274877 9.159113 7.455447 -1.5339595 -5.595855 1.237388 -6.2544003
-6.3824615 0.5628121 4.5607963 -6.8063254 5.3699527 8.200352 7.214946 -2.4517696
2.8427978 -6.4045043 3.4221392 6.640468 -2.616879 -8.006557 6.430211 -3.1212654
5.5056524 0.2598813 0.1860267 7.6880684 11.219824 6.136584 7.144094 -8.253641
6.5257425 6.0829625 2.8080473 3.1895177 5.3233 -7.180645 -4.6759562 -4.346353
1.7307249 4.8594904 -2.699366 10.467087 5.179152 7.1962976 0.58209246 -1.078096
7.335496 0.6986602 -10.062886 -0.8785625 -1.1822625 -5.2282662 -1.2950009 9.582389
0.4089576 7.446994 5.5400934 -2.087772 0.12882683 -2.1284134 -0.6091737 -3.9096298
0.30692813 -4.266575 -5.042555 0.78601557 -3.0972307 -3.3643153 2.1972013 1.906184
-7.4514318 -7.118023 -1.8105085 -2.9920082 7.5533915 8.8271675 -5.7714257 8.099312
-1.0676199 -6.598363 -3.059539 7.21053 -0.8445427 -2.6706975 4.2611704 9.261093
-1.8983885 4.0181165 -3.5434575 1.5294094 -7.4896083 -0.7231087 12.314273 8.605481
-3.7263868 -1.6292214 9.151636 9.621589 -5.8989887 -4.391615 5.6775656 -5.3014565
10.068833 0.08833472 2.4633596 9.767438 -6.030082 -1.2519958 8.299717 -2.014483
4.857115 -6.596908 -4.4374266 6.58314 5.4010477 1.3855281 -0.49506298 1.1540015
-9.5147915 -1.5707616 5.8335576 -4.795704 6.385048 8.410317 0.9885581 2.4664161
-1.2777958 1.1920174 -1.7401171 -0.73339385 0.27485156 1.7887084 0.11714317 1.6053911
0.59716827 0.29138717 -0.85162497 2.1482792 -0.12587537 -1.1238599 -1.3297961 0.68699884
-0.7634382 1.5833862 -0.8681739 -1.4479071 1.5696706 1.596428 -0.7153545 1.1121206
-1.1385204 -0.19675343 -1.1905892 -0.47823304 -1.5198011 -0.61385685 -1.5678295 2.1194243
-1.0057648 -0.39670077 -0.0936378 0.17506601 -0.7601303 1.3597195 1.0749679 0.92266357
-0.5902714 -0.4687055 0.8835176 -1.3960165 -0.34102964 -1.2594101 -0.5680771 -0.259527
-0.95523405 0.40543306 2.1656322 0.033218466 -0.2788203 1.2164787 0.4717283 -1.337172
0.56835383 -1.1377432 -0.7253864 1.4159951 0.38080192 -1.0400269 0.058118686 0.50484693
-0.4709472 1.4826447 1.4381483 -0.7249271 0.9282593 1.1227534 1.1434454 -0.14630423
1.6672035 1.0472301 -0.9749256 0.04000524 -0.733787 -1.3269498 1.001121 -0.9189983
1.0055208 1.617761 0.7756103 -0.9103732 -0.365272 0.15959577 -0.33842927 -1.7036979
0.56438184 -0.451269 0.6203125 -0.4660554 1.982898 0.21321604 -1.9056958 -0.94030905
0.5777595 0.3626709 -1.7466621 -1.8039782 0.8714661 1.3061285 -0.59265155 0.7590997
-1.3691722 -0.32912037 -1.2007487 -1.6571667 1.3903341 -0.06383929 -2.142618 0.14966254
-0.7535737 1.3340328 0.795864 -0.9479501 -0.5262465 0.30204988 -0.43628156 -0.19047
2.3286092 1.588818 -0.83856595 1.6938623 -1.0066277 -1.5891311 -0.49873808 -0.19775526
00000000: 4de0 a23f 8ff5 54c0 ba8b 1241 0693 ee40
00000010: c958 c4bf 3f11 b3c0 bb62 9e3f 0c24 c8c0
00000020: 203d ccc0 7414 103f 0bf2 9140 6bcd d9c0
00000030: a7d6 ab40 a434 0341 d6e0 e640 cbe9 1cc0
00000040: 66f0 3540 b3f1 ccc0 5404 5b40 b77e d440
00000050: f27a 27c0 dc1a 00c1 4ac4 cd40 d0c2 47c0
00000060: 4e2e b040 290f 853e c97d 3e3e a804 f640
00000070: 6684 3341 e55e c440 6b9c e440 ea0e 04c1
00000080: e2d2 d040 a1a7 c240 0cb7 3340 0f21 4c40
00000090: 7958 aa40 d8c7 e5c0 6fa1 95c0 5315 8bc0
000000a0: 6588 dd3f f280 9b40 6ac2 2cc0 3079 2741
000000b0: 9dbb a540 1248 e640 0304 153f 0dff 89bf
000000c0: 62bc ea40 65db 323f 9501 21c1 79e9 60bf
000000d0: 6154 97bf f54d a7c0 97c2 a5bf 7751 1941
000000e0: e462 d13e c64d ee40 7248 b140 0e9e 05c0
000000f0: 2eeb 033e ed37 08c0 cff2 1bbf 6037 7ac0
00000100: af25 9d3e c887 88c0 9c5c a1c0 5138 493f
00000110: 0739 46c0 f150 57c0 f29e 0c40 d6fd f33f
00000120: 2172 eec0 d8c6 e3c0 bebe e7bf 107d 3fc0
00000130: 62b5 f140 143c 0d41 85af b8c0 c896 0141
00000140: c5a7 88bf ca25 d3c0 7dcf 43c0 a9bc e640
00000150: f333 58bf b5ec 2ac0 825b 8840 702d 1441
00000160: 65fe f2bf 6994 8040 02c8 62c0 b0c3 c33f
00000170: dfaa efc0 a71d 39bf 4307 4541 0db0 0941
00000180: 1f7d 6ec0 548a d0bf 1a6d 1241 07f2 1941
00000190: 84c4 bcc0 1c88 8cc0 9eae b540 88a5 a9c0
000001a0: f119 2141 d5e8 b43d afa7 1d40 6d47 1c41
000001b0: 6ff6 c0c0 6641 a0bf a4cb 0441 4aed 00c0
000001c0: 7c6d 9b40 df19 d3c0 66ff 8dc0 15a9 d240
000001d0: 62d5 ac40 fc58 b13f e578 fdbe 52b6 933f
000001e0: 963c 18c1 b70e c9bf 81ac ba40 6876 99c0
000001f0: 5052 cc40 a990 0641 2512 7d3f c3d9 1d40
00000200: d08e a3bf 0794 983f 28bc debf b3bf 3bbf
00000210: 58b9 8c3e 66f4 e43f c2e8 ef3d 757d cd3f
00000220: 05e0 183f b330 953e 1804 5abf 687d 0940
00000230: 79e5 00be a4da 8fbf c236 aabf 28df 2f3f
00000240: b070 43bf 66ac ca3f a540 5ebf 0555 b9bf
00000250: f7ea c83f c157 cc3f 7921 37bf f859 8e3f
00000260: 09bb 91bf bb79 49be 3a65 98bf f6da f4be
00000270: d888 c2bf b925 1dbf a3ae c8bf a6a4 0740
00000280: e7bc 80bf 5d1c cbbe 2dc5 bfbd 8144 333e
00000290: e697 42bf 4a0b ae3f 8c98 893f ae33 6c3f
000002a0: 071c 17bf 2bfa efbe 362e 623f abb0 b2bf
000002b0: 709b aebe 5a34 a1bf 806d 11bf b9e0 84be
000002c0: 388a 74bf ec94 cf3e b899 0a40 1610 083d
000002d0: 89c1 8ebe 93b5 9b3f 5f86 f13e 7428 abbf
000002e0: a37f 113f 92a1 91bf ecb2 39bf 543f b53f
000002f0: 78f8 c23e 9a1f 85bf dc0d 6e3d a63d 013f
00000300: fe1f f1be 4dc7 bd3f 3e15 b83f d394 39bf
00000310: 67a2 6d3f 62b6 8f3f 6b5c 923f c7d0 15be
00000320: ed66 d53f a30b 863f b994 79bf 89dc 233d
00000330: 77d9 3bbf 7ed9 a9bf bc24 803f 7943 6bbf
00000340: e8b4 803f cb12 cf3f 668e 463f 380e 69bf
00000350: ee04 bbbe 136d 233e 9a46 adbe c612 dabf
00000360: 547b 103f bb0c e7be cdcc 1e3f d09e eebe
00000370: 9acf fd3f 4e55 5a3e d7ed f3bf 18b8 70bf
00000380: 0ce8 133f 00b0 b93e a092 dfbf c2e8 e6bf
00000390: 6718 5f3f 382f a73f 03b8 17bf 5c54 423f
000003a0: 0941 afbf 7782 a8be 22b2 99bf 0a1e d4bf
000003b0: 78f6 b13f 2cbe 82bd a720 09c0 2341 193e
000003c0: 35ea 40bf 96c1 aa3f bebd 4b3f dcac 72bf
000003d0: 17b8 06bf 48a6 9a3e 4c60 dfbe 910a 43be
000003e0: ef07 1540 635e cb3f 42ac 56bf 7bd0 d83f
000003f0: 2dd9 80bf a668 cbbf 995a ffbe 5b80 4abe

bn1.running_var f4 [7296]
8.91305 22.040533 123.40447 76.789345 18.672619 44.967644 7.2148523 56.07038
66.095924 12.919496 29.622543 65.460495 45.007607 94.05661 72.52565 9.275838
14.31388 63.93798 16.050518 57.87823 10.265145 94.66645 63.64875 20.838514
47.29661 7.2821517 13.834109 92.65416 173.44885 61.473076 76.91866 98.54937
64.01679 56.930656 18.385807 21.56028 38.873653 83.69932 46.108025 31.141909
9.687769 32.896255 13.837471 151.95314 36.606556 69.447464 5.4817443 7.7430735
78.049805 12.118246 130.45677 12.1368885 8.130476 44.719936 8.15051 125.81117
3.186498 75.339775 41.123245 11.81088 4.310724 13.033956 6.7303433 22.590906
2.5266194 26.305979 37.086567 8.0782175 12.637433 23.675983 13.441982 9.764577
85.500595 72.41111 13.577508 14.890481 95.6186 101.381096 50.78394 94.731964
9.748418 55.322388 14.379366 76.26457 7.9102077 12.993123 31.48208 124.09599
15.414203 33.32034 26.822649 7.09452 95.01579 9.874914 208.47072 95.76314
28.374197 8.8424225 116.22548 135.94147 68.63243 32.31822 52.522152 44.135654
140.93721 4.684266 9.896688 146.48866 49.912804 12.025135 102.44474 10.462544
30.7147 76.49578 31.827322 64.689575 41.15345 9.142313 4.824822 5.3268504
136.66483 5.7478538 50.52879 32.25259 77.41078 105.733505 4.054265 17.21238
5.4261537 9.287508 30.196997 20.503374 6.2279987 11.648642 4.2036715 13.261518
16.824366 4.078474 8.060072 16.607918 13.524084 23.852688 16.99336 3.907579
6.862993 17.519424 5.4276953 14.336744 3.4174857 23.29038 15.736867 7.264845
12.805796 2.8513227 6.5452266 24.805729 39.335865 15.7021055 20.430523 21.307516
16.876366 15.057865 7.9827933 7.739779 11.479556 22.23415 11.593805 8.37358
4.729781 9.241798 3.9321792 35.6749 9.627863 15.904696 3.3750918 4.0076337
19.656301 4.3282523 29.598454 3.5032916 3.60458 13.125248 6.124507 29.147028
5.63743 19.258078 11.885474 6.236586 4.451338 7.4191957 5.069826 6.8538275
2.6713698 8.460726 9.662735 5.520231 4.929168 5.1286283 7.9864626 3.9908943
21.546095 17.25968 6.548529 7.565914 28.4455 24.045656 14.474592 24.840816
5.510737 11.162378 3.4393542 21.351795 4.019982 5.9473257 8.830457 29.346027
7.551509 12.547526 8.575253 5.0683007 23.532864 3.6545434 50.421318 23.346031
9.375405 3.61308 28.168657 32.88884 17.754623 8.658867 15.766023 13.882727
34.793655 3.4587817 4.568105 35.085384 11.189585 5.0107884 22.745523 7.9935193
9.635239 18.951014 12.069111 17.53479 11.630332 3.8723242 4.3245573 3.5996153
32.366615 3.4124765 12.925246 8.282653 23.35103 26.248226 3.1043096 7.7515283
00000000: da9b 0e41 0353 b041 17cf f642 2594 9942
00000010: 8661 9541 dede 3342 12e0 e640 1248 6042
00000020: 1d31 8442 41b6 4e41 f8fa ec41 c6eb 8242
00000030: ca07 3442 fc1c bc42 220d 9142 d569 1441
00000040: a705 6541 7ec0 7f42 7667 8041 4f83 6742
00000050: 093e 2441 3955 bd42 5298 7e42 47b5 a641
00000060: bb2f 3d42 6307 e940 8358 5d41 ee4e b942
00000070: e872 2d43 6ee4 7542 5bd6 9942 4719 c542
00000080: 9908 8042 feb8 6342 2216 9341 747b ac41
00000090: 9f7e 1b42 0d66 a742 9e6e 3842 a122 f941
000000a0: 1a01 1b41 c495 0342 4866 5d41 01f4 1743
000000b0: 1d6d 1242 1ae5 8a42 736a af40 42c7 f740
000000c0: 8019 9c42 56e4 4141 ef74 0243 b230 4241
000000d0: 6e16 0241 37e1 3242 7d68 0241 529f fb42
000000e0: 95ef 4b40 f7ad 9642 347e 2442 5df9 3c41
000000f0: 73f1 8940 158b 5041 f95e d740 2dba b441
00000100: 22b4 2140 a572 d241 a558 1442 6140 0141
00000110: ed32 4a41 6a68 bd41 5c12 5741 b53b 1c41
00000120: 4e00 ab42 7dd2 9042 793d 5941 693f 6e41
00000130: b93c bf42 1fc3 ca42 c122 4b42 c476 bd42
00000140: 85f9 1b41 204a 5d42 e211 6641 7687 9842
00000150: 6c20 fd40 d5e3 4f41 4ddb fb41 2631 f842
00000160: 93a0 7641 0748 0542 c994 d641 4f06 e340
00000170: 1608 be42 a6ff 1d41 8178 5043 ba86 bf42
00000180: 5bfe e241 907a 0d41 7273 e842 04f1 0743
00000190: ce43 8942 db45 0142 af16 5242 e98a 3042
000001a0: edef 0c43 82e5 9540 d658 1e41 197d 1243
000001b0: b6a6 4742 f466 4041 b5e3 cc42 9566 2741
000001c0: b5b7 f541 d7fd 9842 5b9e fe41 1061 8142
000001d0: 229d 2442 ea46 1241 f164 9a40 8f75 aa40
000001e0: 32aa 0843 6bee b740 7b1d 4a42 a702 0142
000001f0: 52d2 9a42 8e77 d342 8abc 8140 f4b2 8941
00000200: 0da3 ad40 a299 1441 7393 f141 e906 a441
00000210: c44b c740 d660 3a41 7a84 8640 2d2f 5441
00000220: 4d98 8641 dc82 8240 0ef6 0041 04dd 8441
00000230: a662 5841 4ed2 be41 67f2 8741 c615 7a40
00000240: a39d db40 c827 8c41 aeaf ad40 4e63 6541
00000250: 16b8 5a40 b352 ba41 35ca 7b41 9c79 e840
00000260: 8ae4 4c41 127c 3640 7f72 d140 2272 c641
00000270: ed57 1d42 d33b 7b41 b671 a341 cb75 aa41
00000280: cc02 8741 04ed 7041 0b73 ff40 45ac f740
00000290: 43ac 3741 8adf b141 3a80 3941 2ffa 0541
000002a0: 5e5a 9740 68de 1341 d3a8 7b40 19b3 0e42
000002b0: ba0b 1a41 a379 7e41 8101 5840 893e 8040
000002c0: 1b40 9d41 0b81 8a40 a2c9 ec41 ee35 6040
000002d0: 70b1 6640 0401 5241 f6fb c340 1d2d e941
000002e0: d465 b440 8b10 9a41 e72a 3e41 1d92 c740
000002f0: 5c71 8e40 0d6a ed40 043c a240 8e52 db40
00000300: b9f7 2a40 225f 0741 909a 1a41 bba5 b040
00000310: bfbb 9d40 b91d a440 1a91 ff40 d06a 7f40
00000320: 675e ac41 d313 8a41 8d8d d140 f81b f240
00000330: 6290 e341 815d c041 ee97 6741 feb9 c641
00000340: f557 b040 1a99 3241 611e 5c40 7ad0 aa41
00000350: b1a3 8040 7e50 be40 8d49 0d41 aac4 ea41
00000360: f6a5 f140 abc2 4841 3c34 0941 852f a240
00000370: 4e43 bc41 0ae4 6940 6eaf 4942 acc4 ba41
00000380: a901 1641 b43c 6740 6959 e141 2c8e 0342
00000390: 7809 8e41 b88a 0a41 a141 7c41 a61f 5e41
000003a0: b42c 0b42 ae5c 5d40 eb2d 9240 6f57 0c42
000003b0: 8a08 3341 6158 a040 d5f6 b541 e9ca ff40
000003c0: f029 1a41 ad9b 9741 141b 4141 4047 8c41
000003d0: d715 3a41 29d4 7740 c662 8a40 1960 6640
000003e0: 6a77 0142 0466 5a40 cfcd 4e41 bf85 0441
000003f0: e9ce ba41 5efc d141 02ad 4640 850c f840

gcbs.0.gc1.weight f4 [128, 128]
-0.09814591 0.032384887 0.14963226 -0.02287744 0.073172696 0.13419391 -0.07537185 -0.045186486
-0.0148476185 0.028764809 0.12116439 0.097636074 0.058118425 0.2624906 0.011507891 -0.14858587
0.052486084 0.09917269 -0.00544882 0.024728062 -0.05206999 0.14173527 0.09204998 0.1485391
-0.016080357 0.101256914 -0.03141648 0.009791122 0.08122728 -0.053915896 -0.019637337 0.033602137
0.10045473 -0.059213102 0.10024791 0.14873402 0.095586196 -0.0038900552 0.05220902 -0.07221462
-0.081093356 -0.07608869 -0.04987115 0.08782311 0.108287595 -0.010786 0.12142605 -0.022638727
0.12252652 0.058339454 0.087229796 0.00961773 -0.044548392 -0.021003526 0.15805638 0.022901798
0.1775147 -0.060803726 0.090193845 -0.028703744 0.14191447 0.087549925 0.047812633 -0.064832054
0.17633225 -0.0306532 0.09626057 0.06466648 0.006015522 0.045900308 0.1379842 -0.03778265
0.0735806 0.25186145 0.0918541 -0.01357698 0.071429536 -0.03441262 0.12913929 0.13629392
0.036445413 0.03061965 0.040224202 0.06311439 0.010680677 0.007857375 0.018313564 -0.1160888
-0.009284548 0.09979097 0.05841128 -0.06290988 -0.062694155 0.14024714 0.13598047 -0.0749528
0.06972509 -0.028447157 -0.012667302 -0.03583302 0.082020454 -0.024752494 0.0008172097 0.052837726
-0.0052886647 0.21955206 0.054666165 0.0008857365 0.058735944 0.10323094 0.13867782 -0.024487669
0.131998 0.051021088 0.08381214 -0.016130283 -0.051738705 -0.071289 0.07015535 0.043764513
0.063567385 0.10496364 0.19849087 -0.09337943 0.03061268 0.10267928 -0.027471 0.031216033
-0.0046328884 -0.007220869 0.0076342146 0.075904414 0.08229738 0.08145744 0.13181798 -0.077642955
-0.023709124 0.004398531 -0.17071618 0.07171635 -0.122125365 -0.04315076 -0.09681705 0.05660917
-0.065170564 0.13761926 0.02537748 0.13125122 0.098063424 0.04795955 -0.013482594 0.021082824
-0.034188163 0.0042956634 0.17903504 0.07303631 -0.029319376 -0.08588384 0.016132552 0.03884908
0.154505 -0.10573948 -0.030824909 0.0060307886 0.14392893 -0.08197517 0.025935376 0.040171046
-0.06364764 -0.048717756 -0.058364812 0.07325338 -0.07520621 0.034198593 0.048104454 -0.08547475
-0.042868443 0.12051504 0.04360472 0.06310103 -0.031555515 0.03800488 0.03928407 0.12987436
0.111766785 0.025878383 -0.1048779 0.026039047 0.07144352 0.09253032 0.11184201 0.07181846
0.017622903 0.013581273 0.013735408 -0.14197081 0.009045299 0.080893375 0.1352186 -0.017283732
-0.015447012 0.0113182785 0.0029390696 -0.11421991 0.15021701 -0.07206262 -0.020189503 0.18801042
0.09252265 -0.12207336 0.011090814 -0.08175936 0.017872715 0.0459363 0.09800445 0.119931996
0.038471214 0.1689984 -0.045022998 0.1315001 0.057295326 0.008962741 -0.0046761455 0.08266478
0.0036131435 0.1220133 -0.0047312323 -0.05599035 0.039332192 0.059183728 0.01417511 0.13181794
-0.11564731 0.011037776 0.04091526 0.031227412 -0.03045691 0.03496328 0.0026296773 -0.083401
0.020222256 -0.036597073 0.031549826 0.016447704 0.011297506 0.049841743 0.002290265 0.0034746937
0.080688976 0.017269379 -0.00674754 -0.0102868425 0.062416375 0.09267174 -0.01676545 -0.027887007
00000000: b900 c9bd 04a6 043d 3339 193e 7869 bbbc
00000010: 91db 953d 216a 093e 8e5c 9abd 7715 39bd
00000020: 6d43 73bc 2da4 eb3c 0925 f83d 6cf5 c73d
00000030: 960d 6e3d 2b65 863e 988b 3c3c e526 18be
00000040: a6fb 563d 0d1b cb3d 048c b2bb 8192 ca3c
00000050: 5847 55bd 0d23 113e b384 bc3d a21a 183e
00000060: f4ba 83bc c95f cf3d 91ae 00bd f16a 203c
00000070: 7d5a a63d ead6 5cbd 7bde a0bc 65a2 093d
00000080: 36bb cd3d 7089 72bd c74e cd3d bb4d 183e
00000090: b2c2 c33d 4cf0 7ebb 20d9 553d 42e5 93bd
000000a0: 4614 a6bd 63d4 9bbd b145 4cbd 9adc b33d
000000b0: e3c5 dd3d c3b7 30bc 39ae f83d da74 b9bc
000000c0: 2fef fa3d 5af5 6e3d 89a5 b23d af93 1d3c
000000d0: 6078 36bd 960f acbc 88d9 213e 8d9c bb3c
000000e0: 6ac6 353e 540d 79bd 8db7 b83d 1d24 ebbc
000000f0: 0752 113e 604d b33d 2ed7 433d abc6 84bd
00000100: 7190 343e 6b1c fbbc 4324 c53d dc6f 843d
00000110: db1d c53b f601 3c3d bb4b 0d3e fbc1 1abd
00000120: 6db1 963d fcf3 803e 011e bc3d fb71 5ebc
00000130: a649 923d 3ff4 0cbd 173d 043e a290 0b3e
00000140: c947 153d 0fd6 fa3c 22c2 243d 1e42 813d
00000150: 02fe 2e3c 38bc 003c 5406 963c f7bf edbd
00000160: 381e 18bc 355f cc3d ab40 6f3d e5d6 80bd
00000170: cb65 80bd f29c 0f3e 773e 0b3e db80 99bd
00000180: 07cc 8e3d 030a e9bc 848a 4fbc a5c5 12bd
00000190: 57fa a73d bec5 cabc 043a 563a 5f6c 583d
000001a0: 894c adbb 41d2 603e a1e9 5f3d c530 683a
000001b0: 1a95 703d be6a d33d 8f01 0e3e 5d9a c8bc
000001c0: 7c2a 073e 7dfb 503d b3a5 ab3d a823 84bc
000001d0: f7eb 53bd f8ff 91bd 9cad 8f3d 6b42 333d
000001e0: 9e2f 823d 2df7 d63d 3141 4b3e b73d bfbd
000001f0: 71c7 fa3c 8449 d23d dd0a e1bc c4b8 ff3c
00000200: 7ccf 97bb 0a9d ecbb 6f28 fa3b c673 9b3d
00000210: 878b a83d 29d3 a63d 4bfb 063e 4503 9fbd
00000220: a339 c2bc 8d21 903b 39d0 2ebe 06e0 923d
00000230: dd1c fabd dabe 30bd 0448 c6bd 04df 673d
00000240: 2578 85bd 10ec 0c3e 6fe4 cf3c b866 063e
00000250: 7ad5 c83d 3c71 443d 19e6 5cbc e3b5 ac3c
00000260: e308 0cbd a3c2 8c3b f654 373e 1094 953d
00000270: 302f f0bc dee3 afbd 6a28 843c 3720 1f3d
00000280: 8f36 1e3e f18d d8bd 8584 fcbc ec9d c53b
00000290: 1b62 133e 99e2 a7bd 6d76 d43c 658a 243d
000002a0: b259 82bd 458c 47bd f10f 6fbd de05 963d
000002b0: b705 9abd d313 0c3d 2d09 453d 630d afbd
000002c0: d296 2fbd 97d0 f63d dd9a 323d 1d3b 813d
000002d0: 5b40 01bd 01ab 1b3d 55e8 203d c9fd 043e
000002e0: fce5 e43d e7fe d33c 39ca d6bd d74f d53c
000002f0: fb50 923d 8980 bd3d 6c0d e53d 8f15 933d
00000300: e85d 903c fd83 5e3c 7a0a 613c cc60 11be
00000310: bc32 143c 6dab a53d bf76 0a3e 9d96 8dbc
00000320: 7715 7dbc 4d70 393c 689d 403b 21ec e9bd
00000330: 7dd2 193e 9195 93bd 7564 a5bc ce85 403e
00000340: 847c bd3d 9901 fabd 3fb6 353c 7471 a7bd
00000350: cd69 923c b427 3c3d 8fb6 c83d e89e f53d
00000360: fe93 1d3d eb0d 2d3e 096a 38bd f6a7 063e
00000370: 81ae 6a3d 76d8 123c 5a3a 99bb 274c a93d
00000380: 7dca 6c3b 1ce2 f93d 7408 9bbb 2356 65bd
00000390: cb1a 213d a36a 723d b83e 683c 48fb 063e
000003a0: 7fd8 ecbd cad7 343c c296 273d a1d0 ff3c
000003b0: c580 f9bc a835 0f3d aa56 2c3b 25ce aabd
000003c0: 25a9 a53c d0e6 15bd 643a 013d 56bd 863c
000003d0: 2d19 393c db26 4c3d 4518 163b b0b7 633b
000003e0: 4340 a53d 8378 8d3c 781a ddbb 258a 28bc
000003f0: 50a8 7f3d aeca bd3d b257 89bc 4b73 e4bc
